                            RESNET-34
----------------------------------------------------------------
        Layer (type)               Output Shape         Param #
================================================================
            Conv2d-1         [-1, 64, 112, 112]           9,408
       BatchNorm2d-2         [-1, 64, 112, 112]             128
              ReLU-3         [-1, 64, 112, 112]               0
         MaxPool2d-4           [-1, 64, 56, 56]               0
        Conv2dAuto-5           [-1, 64, 56, 56]          36,864
       BatchNorm2d-6           [-1, 64, 56, 56]             128
              ReLU-7           [-1, 64, 56, 56]               0
        Conv2dAuto-8           [-1, 64, 56, 56]          36,864
       BatchNorm2d-9           [-1, 64, 56, 56]             128
             ReLU-10           [-1, 64, 56, 56]               0
 ResNetBasicBlock-11           [-1, 64, 56, 56]               0
       Conv2dAuto-12           [-1, 64, 56, 56]          36,864
      BatchNorm2d-13           [-1, 64, 56, 56]             128
             ReLU-14           [-1, 64, 56, 56]               0
       Conv2dAuto-15           [-1, 64, 56, 56]          36,864
      BatchNorm2d-16           [-1, 64, 56, 56]             128
             ReLU-17           [-1, 64, 56, 56]               0
 ResNetBasicBlock-18           [-1, 64, 56, 56]               0
       Conv2dAuto-19           [-1, 64, 56, 56]          36,864
      BatchNorm2d-20           [-1, 64, 56, 56]             128
             ReLU-21           [-1, 64, 56, 56]               0
       Conv2dAuto-22           [-1, 64, 56, 56]          36,864
      BatchNorm2d-23           [-1, 64, 56, 56]             128
             ReLU-24           [-1, 64, 56, 56]               0
 ResNetBasicBlock-25           [-1, 64, 56, 56]               0
      ResNetLayer-26           [-1, 64, 56, 56]               0
           Conv2d-27          [-1, 128, 28, 28]           8,192
      BatchNorm2d-28          [-1, 128, 28, 28]             256
       Conv2dAuto-29          [-1, 128, 28, 28]          73,728
      BatchNorm2d-30          [-1, 128, 28, 28]             256
             ReLU-31          [-1, 128, 28, 28]               0
       Conv2dAuto-32          [-1, 128, 28, 28]         147,456
      BatchNorm2d-33          [-1, 128, 28, 28]             256
             ReLU-34          [-1, 128, 28, 28]               0
 ResNetBasicBlock-35          [-1, 128, 28, 28]               0
       Conv2dAuto-36          [-1, 128, 28, 28]         147,456
      BatchNorm2d-37          [-1, 128, 28, 28]             256
             ReLU-38          [-1, 128, 28, 28]               0
       Conv2dAuto-39          [-1, 128, 28, 28]         147,456
      BatchNorm2d-40          [-1, 128, 28, 28]             256
             ReLU-41          [-1, 128, 28, 28]               0
 ResNetBasicBlock-42          [-1, 128, 28, 28]               0
       Conv2dAuto-43          [-1, 128, 28, 28]         147,456
      BatchNorm2d-44          [-1, 128, 28, 28]             256
             ReLU-45          [-1, 128, 28, 28]               0
       Conv2dAuto-46          [-1, 128, 28, 28]         147,456
      BatchNorm2d-47          [-1, 128, 28, 28]             256
             ReLU-48          [-1, 128, 28, 28]               0
 ResNetBasicBlock-49          [-1, 128, 28, 28]               0
       Conv2dAuto-50          [-1, 128, 28, 28]         147,456
      BatchNorm2d-51          [-1, 128, 28, 28]             256
             ReLU-52          [-1, 128, 28, 28]               0
       Conv2dAuto-53          [-1, 128, 28, 28]         147,456
      BatchNorm2d-54          [-1, 128, 28, 28]             256
             ReLU-55          [-1, 128, 28, 28]               0
 ResNetBasicBlock-56          [-1, 128, 28, 28]               0
      ResNetLayer-57          [-1, 128, 28, 28]               0
           Conv2d-58          [-1, 256, 14, 14]          32,768
      BatchNorm2d-59          [-1, 256, 14, 14]             512
       Conv2dAuto-60          [-1, 256, 14, 14]         294,912
      BatchNorm2d-61          [-1, 256, 14, 14]             512
             ReLU-62          [-1, 256, 14, 14]               0
       Conv2dAuto-63          [-1, 256, 14, 14]         589,824
      BatchNorm2d-64          [-1, 256, 14, 14]             512
             ReLU-65          [-1, 256, 14, 14]               0
 ResNetBasicBlock-66          [-1, 256, 14, 14]               0
       Conv2dAuto-67          [-1, 256, 14, 14]         589,824
      BatchNorm2d-68          [-1, 256, 14, 14]             512
             ReLU-69          [-1, 256, 14, 14]               0
       Conv2dAuto-70          [-1, 256, 14, 14]         589,824
      BatchNorm2d-71          [-1, 256, 14, 14]             512
             ReLU-72          [-1, 256, 14, 14]               0
 ResNetBasicBlock-73          [-1, 256, 14, 14]               0
       Conv2dAuto-74          [-1, 256, 14, 14]         589,824
      BatchNorm2d-75          [-1, 256, 14, 14]             512
             ReLU-76          [-1, 256, 14, 14]               0
       Conv2dAuto-77          [-1, 256, 14, 14]         589,824
      BatchNorm2d-78          [-1, 256, 14, 14]             512
             ReLU-79          [-1, 256, 14, 14]               0
 ResNetBasicBlock-80          [-1, 256, 14, 14]               0
       Conv2dAuto-81          [-1, 256, 14, 14]         589,824
      BatchNorm2d-82          [-1, 256, 14, 14]             512
             ReLU-83          [-1, 256, 14, 14]               0
       Conv2dAuto-84          [-1, 256, 14, 14]         589,824
      BatchNorm2d-85          [-1, 256, 14, 14]             512
             ReLU-86          [-1, 256, 14, 14]               0
 ResNetBasicBlock-87          [-1, 256, 14, 14]               0
       Conv2dAuto-88          [-1, 256, 14, 14]         589,824
      BatchNorm2d-89          [-1, 256, 14, 14]             512
             ReLU-90          [-1, 256, 14, 14]               0
       Conv2dAuto-91          [-1, 256, 14, 14]         589,824
      BatchNorm2d-92          [-1, 256, 14, 14]             512
             ReLU-93          [-1, 256, 14, 14]               0
 ResNetBasicBlock-94          [-1, 256, 14, 14]               0
       Conv2dAuto-95          [-1, 256, 14, 14]         589,824
      BatchNorm2d-96          [-1, 256, 14, 14]             512
             ReLU-97          [-1, 256, 14, 14]               0
       Conv2dAuto-98          [-1, 256, 14, 14]         589,824
      BatchNorm2d-99          [-1, 256, 14, 14]             512
            ReLU-100          [-1, 256, 14, 14]               0
ResNetBasicBlock-101          [-1, 256, 14, 14]               0
     ResNetLayer-102          [-1, 256, 14, 14]               0
          Conv2d-103            [-1, 512, 7, 7]         131,072
     BatchNorm2d-104            [-1, 512, 7, 7]           1,024
      Conv2dAuto-105            [-1, 512, 7, 7]       1,179,648
     BatchNorm2d-106            [-1, 512, 7, 7]           1,024
            ReLU-107            [-1, 512, 7, 7]               0
      Conv2dAuto-108            [-1, 512, 7, 7]       2,359,296
     BatchNorm2d-109            [-1, 512, 7, 7]           1,024
            ReLU-110            [-1, 512, 7, 7]               0
ResNetBasicBlock-111            [-1, 512, 7, 7]               0
      Conv2dAuto-112            [-1, 512, 7, 7]       2,359,296
     BatchNorm2d-113            [-1, 512, 7, 7]           1,024
            ReLU-114            [-1, 512, 7, 7]               0
      Conv2dAuto-115            [-1, 512, 7, 7]       2,359,296
     BatchNorm2d-116            [-1, 512, 7, 7]           1,024
            ReLU-117            [-1, 512, 7, 7]               0
ResNetBasicBlock-118            [-1, 512, 7, 7]               0
      Conv2dAuto-119            [-1, 512, 7, 7]       2,359,296
     BatchNorm2d-120            [-1, 512, 7, 7]           1,024
            ReLU-121            [-1, 512, 7, 7]               0
      Conv2dAuto-122            [-1, 512, 7, 7]       2,359,296
     BatchNorm2d-123            [-1, 512, 7, 7]           1,024
            ReLU-124            [-1, 512, 7, 7]               0
ResNetBasicBlock-125            [-1, 512, 7, 7]               0
     ResNetLayer-126            [-1, 512, 7, 7]               0
   ResNetEncoder-127            [-1, 512, 7, 7]               0
AdaptiveAvgPool2d-128            [-1, 512, 1, 1]               0
          Linear-129                 [-1, 1000]         513,000
   ResnetDecoder-130                 [-1, 1000]               0
================================================================
Total params: 21,797,672
Trainable params: 21,797,672
Non-trainable params: 0
----------------------------------------------------------------
Input size (MB): 0.57
Forward/backward pass size (MB): 99.36
Params size (MB): 83.15
Estimated Total Size (MB): 183.08
----------------------------------------------------------------