                            RESNET-50
----------------------------------------------------------------
        Layer (type)               Output Shape         Param #
================================================================
            Conv2d-1         [-1, 64, 112, 112]           9,408
       BatchNorm2d-2         [-1, 64, 112, 112]             128
              ReLU-3         [-1, 64, 112, 112]               0
         MaxPool2d-4           [-1, 64, 56, 56]               0
            Conv2d-5          [-1, 256, 56, 56]          16,384
       BatchNorm2d-6          [-1, 256, 56, 56]             512
        Conv2dAuto-7           [-1, 64, 56, 56]           4,096
       BatchNorm2d-8           [-1, 64, 56, 56]             128
              ReLU-9           [-1, 64, 56, 56]               0
       Conv2dAuto-10           [-1, 64, 56, 56]          36,864
      BatchNorm2d-11           [-1, 64, 56, 56]             128
             ReLU-12           [-1, 64, 56, 56]               0
       Conv2dAuto-13          [-1, 256, 56, 56]          16,384
      BatchNorm2d-14          [-1, 256, 56, 56]             512
             ReLU-15          [-1, 256, 56, 56]               0
ResNetBottleNeckBlock-16      [-1, 256, 56, 56]               0
       Conv2dAuto-17           [-1, 64, 56, 56]          16,384
      BatchNorm2d-18           [-1, 64, 56, 56]             128
             ReLU-19           [-1, 64, 56, 56]               0
       Conv2dAuto-20           [-1, 64, 56, 56]          36,864
      BatchNorm2d-21           [-1, 64, 56, 56]             128
             ReLU-22           [-1, 64, 56, 56]               0
       Conv2dAuto-23          [-1, 256, 56, 56]          16,384
      BatchNorm2d-24          [-1, 256, 56, 56]             512
             ReLU-25          [-1, 256, 56, 56]               0
ResNetBottleNeckBlock-26      [-1, 256, 56, 56]               0
       Conv2dAuto-27           [-1, 64, 56, 56]          16,384
      BatchNorm2d-28           [-1, 64, 56, 56]             128
             ReLU-29           [-1, 64, 56, 56]               0
       Conv2dAuto-30           [-1, 64, 56, 56]          36,864
      BatchNorm2d-31           [-1, 64, 56, 56]             128
             ReLU-32           [-1, 64, 56, 56]               0
       Conv2dAuto-33          [-1, 256, 56, 56]          16,384
      BatchNorm2d-34          [-1, 256, 56, 56]             512
             ReLU-35          [-1, 256, 56, 56]               0
ResNetBottleNeckBlock-36      [-1, 256, 56, 56]               0
      ResNetLayer-37          [-1, 256, 56, 56]               0
           Conv2d-38          [-1, 512, 28, 28]         131,072
      BatchNorm2d-39          [-1, 512, 28, 28]           1,024
       Conv2dAuto-40          [-1, 128, 56, 56]          32,768
      BatchNorm2d-41          [-1, 128, 56, 56]             256
             ReLU-42          [-1, 128, 56, 56]               0
       Conv2dAuto-43          [-1, 128, 28, 28]         147,456
      BatchNorm2d-44          [-1, 128, 28, 28]             256
             ReLU-45          [-1, 128, 28, 28]               0
       Conv2dAuto-46          [-1, 512, 28, 28]          65,536
      BatchNorm2d-47          [-1, 512, 28, 28]           1,024
             ReLU-48          [-1, 512, 28, 28]               0
ResNetBottleNeckBlock-49      [-1, 512, 28, 28]               0
       Conv2dAuto-50          [-1, 128, 28, 28]          65,536
      BatchNorm2d-51          [-1, 128, 28, 28]             256
             ReLU-52          [-1, 128, 28, 28]               0
       Conv2dAuto-53          [-1, 128, 28, 28]         147,456
      BatchNorm2d-54          [-1, 128, 28, 28]             256
             ReLU-55          [-1, 128, 28, 28]               0
       Conv2dAuto-56          [-1, 512, 28, 28]          65,536
      BatchNorm2d-57          [-1, 512, 28, 28]           1,024
             ReLU-58          [-1, 512, 28, 28]               0
ResNetBottleNeckBlock-59      [-1, 512, 28, 28]               0
       Conv2dAuto-60          [-1, 128, 28, 28]          65,536
      BatchNorm2d-61          [-1, 128, 28, 28]             256
             ReLU-62          [-1, 128, 28, 28]               0
       Conv2dAuto-63          [-1, 128, 28, 28]         147,456
      BatchNorm2d-64          [-1, 128, 28, 28]             256
             ReLU-65          [-1, 128, 28, 28]               0
       Conv2dAuto-66          [-1, 512, 28, 28]          65,536
      BatchNorm2d-67          [-1, 512, 28, 28]           1,024
             ReLU-68          [-1, 512, 28, 28]               0
ResNetBottleNeckBlock-69      [-1, 512, 28, 28]               0
       Conv2dAuto-70          [-1, 128, 28, 28]          65,536
      BatchNorm2d-71          [-1, 128, 28, 28]             256
             ReLU-72          [-1, 128, 28, 28]               0
       Conv2dAuto-73          [-1, 128, 28, 28]         147,456
      BatchNorm2d-74          [-1, 128, 28, 28]             256
             ReLU-75          [-1, 128, 28, 28]               0
       Conv2dAuto-76          [-1, 512, 28, 28]          65,536
      BatchNorm2d-77          [-1, 512, 28, 28]           1,024
             ReLU-78          [-1, 512, 28, 28]               0
ResNetBottleNeckBlock-79      [-1, 512, 28, 28]               0
      ResNetLayer-80          [-1, 512, 28, 28]               0
           Conv2d-81         [-1, 1024, 14, 14]         524,288
      BatchNorm2d-82         [-1, 1024, 14, 14]           2,048
       Conv2dAuto-83          [-1, 256, 28, 28]         131,072
      BatchNorm2d-84          [-1, 256, 28, 28]             512
             ReLU-85          [-1, 256, 28, 28]               0
       Conv2dAuto-86          [-1, 256, 14, 14]         589,824
      BatchNorm2d-87          [-1, 256, 14, 14]             512
             ReLU-88          [-1, 256, 14, 14]               0
       Conv2dAuto-89         [-1, 1024, 14, 14]         262,144
      BatchNorm2d-90         [-1, 1024, 14, 14]           2,048
             ReLU-91         [-1, 1024, 14, 14]               0
ResNetBottleNeckBlock-92     [-1, 1024, 14, 14]               0
       Conv2dAuto-93          [-1, 256, 14, 14]         262,144
      BatchNorm2d-94          [-1, 256, 14, 14]             512
             ReLU-95          [-1, 256, 14, 14]               0
       Conv2dAuto-96          [-1, 256, 14, 14]         589,824
      BatchNorm2d-97          [-1, 256, 14, 14]             512
             ReLU-98          [-1, 256, 14, 14]               0
       Conv2dAuto-99         [-1, 1024, 14, 14]         262,144
     BatchNorm2d-100         [-1, 1024, 14, 14]           2,048
            ReLU-101         [-1, 1024, 14, 14]               0
ResNetBottleNeckBlock-102    [-1, 1024, 14, 14]               0
      Conv2dAuto-103          [-1, 256, 14, 14]         262,144
     BatchNorm2d-104          [-1, 256, 14, 14]             512
            ReLU-105          [-1, 256, 14, 14]               0
      Conv2dAuto-106          [-1, 256, 14, 14]         589,824
     BatchNorm2d-107          [-1, 256, 14, 14]             512
            ReLU-108          [-1, 256, 14, 14]               0
      Conv2dAuto-109         [-1, 1024, 14, 14]         262,144
     BatchNorm2d-110         [-1, 1024, 14, 14]           2,048
            ReLU-111         [-1, 1024, 14, 14]               0
ResNetBottleNeckBlock-112    [-1, 1024, 14, 14]               0
      Conv2dAuto-113          [-1, 256, 14, 14]         262,144
     BatchNorm2d-114          [-1, 256, 14, 14]             512
            ReLU-115          [-1, 256, 14, 14]               0
      Conv2dAuto-116          [-1, 256, 14, 14]         589,824
     BatchNorm2d-117          [-1, 256, 14, 14]             512
            ReLU-118          [-1, 256, 14, 14]               0
      Conv2dAuto-119         [-1, 1024, 14, 14]         262,144
     BatchNorm2d-120         [-1, 1024, 14, 14]           2,048
            ReLU-121         [-1, 1024, 14, 14]               0
ResNetBottleNeckBlock-122    [-1, 1024, 14, 14]               0
      Conv2dAuto-123          [-1, 256, 14, 14]         262,144
     BatchNorm2d-124          [-1, 256, 14, 14]             512
            ReLU-125          [-1, 256, 14, 14]               0
      Conv2dAuto-126          [-1, 256, 14, 14]         589,824
     BatchNorm2d-127          [-1, 256, 14, 14]             512
            ReLU-128          [-1, 256, 14, 14]               0
      Conv2dAuto-129         [-1, 1024, 14, 14]         262,144
     BatchNorm2d-130         [-1, 1024, 14, 14]           2,048
            ReLU-131         [-1, 1024, 14, 14]               0
ResNetBottleNeckBlock-132     [-1, 1024, 14, 14]               0
      Conv2dAuto-133          [-1, 256, 14, 14]         262,144
     BatchNorm2d-134          [-1, 256, 14, 14]             512
            ReLU-135          [-1, 256, 14, 14]               0
      Conv2dAuto-136          [-1, 256, 14, 14]         589,824
     BatchNorm2d-137          [-1, 256, 14, 14]             512
            ReLU-138          [-1, 256, 14, 14]               0
      Conv2dAuto-139         [-1, 1024, 14, 14]         262,144
     BatchNorm2d-140         [-1, 1024, 14, 14]           2,048
            ReLU-141         [-1, 1024, 14, 14]               0
ResNetBottleNeckBlock-142    [-1, 1024, 14, 14]               0
     ResNetLayer-143         [-1, 1024, 14, 14]               0
          Conv2d-144           [-1, 2048, 7, 7]       2,097,152
     BatchNorm2d-145           [-1, 2048, 7, 7]           4,096
      Conv2dAuto-146          [-1, 512, 14, 14]         524,288
     BatchNorm2d-147          [-1, 512, 14, 14]           1,024
            ReLU-148          [-1, 512, 14, 14]               0
      Conv2dAuto-149            [-1, 512, 7, 7]       2,359,296
     BatchNorm2d-150            [-1, 512, 7, 7]           1,024
            ReLU-151            [-1, 512, 7, 7]               0
      Conv2dAuto-152           [-1, 2048, 7, 7]       1,048,576
     BatchNorm2d-153           [-1, 2048, 7, 7]           4,096
            ReLU-154           [-1, 2048, 7, 7]               0
ResNetBottleNeckBlock-155      [-1, 2048, 7, 7]               0
      Conv2dAuto-156            [-1, 512, 7, 7]       1,048,576
     BatchNorm2d-157            [-1, 512, 7, 7]           1,024
            ReLU-158            [-1, 512, 7, 7]               0
      Conv2dAuto-159            [-1, 512, 7, 7]       2,359,296
     BatchNorm2d-160            [-1, 512, 7, 7]           1,024
            ReLU-161            [-1, 512, 7, 7]               0
      Conv2dAuto-162           [-1, 2048, 7, 7]       1,048,576
     BatchNorm2d-163           [-1, 2048, 7, 7]           4,096
            ReLU-164           [-1, 2048, 7, 7]               0
ResNetBottleNeckBlock-165       [-1, 2048, 7, 7]              0
      Conv2dAuto-166            [-1, 512, 7, 7]       1,048,576
     BatchNorm2d-167            [-1, 512, 7, 7]           1,024
            ReLU-168            [-1, 512, 7, 7]               0
      Conv2dAuto-169            [-1, 512, 7, 7]       2,359,296
     BatchNorm2d-170            [-1, 512, 7, 7]           1,024
            ReLU-171            [-1, 512, 7, 7]               0
      Conv2dAuto-172           [-1, 2048, 7, 7]       1,048,576
     BatchNorm2d-173           [-1, 2048, 7, 7]           4,096
            ReLU-174           [-1, 2048, 7, 7]               0
ResNetBottleNeckBlock-175      [-1, 2048, 7, 7]               0
     ResNetLayer-176           [-1, 2048, 7, 7]               0
   ResNetEncoder-177           [-1, 2048, 7, 7]               0
AdaptiveAvgPool2d-178           [-1, 2048, 1, 1]               0
          Linear-179                 [-1, 1000]       2,049,000
   ResnetDecoder-180                 [-1, 1000]               0
================================================================
Total params: 25,557,032
Trainable params: 25,557,032
Non-trainable params: 0
----------------------------------------------------------------
Input size (MB): 0.57
Forward/backward pass size (MB): 298.82
Params size (MB): 97.49
Estimated Total Size (MB): 396.88
----------------------------------------------------------------