
                            RESNET-152
----------------------------------------------------------------
        Layer (type)               Output Shape         Param #
================================================================
            Conv2d-1         [-1, 64, 112, 112]           9,408
       BatchNorm2d-2         [-1, 64, 112, 112]             128
              ReLU-3         [-1, 64, 112, 112]               0
         MaxPool2d-4           [-1, 64, 56, 56]               0
            Conv2d-5          [-1, 256, 56, 56]          16,384
       BatchNorm2d-6          [-1, 256, 56, 56]             512
        Conv2dAuto-7           [-1, 64, 56, 56]           4,096
       BatchNorm2d-8           [-1, 64, 56, 56]             128
              ReLU-9           [-1, 64, 56, 56]               0
       Conv2dAuto-10           [-1, 64, 56, 56]          36,864
      BatchNorm2d-11           [-1, 64, 56, 56]             128
             ReLU-12           [-1, 64, 56, 56]               0
       Conv2dAuto-13          [-1, 256, 56, 56]          16,384
      BatchNorm2d-14          [-1, 256, 56, 56]             512
             ReLU-15          [-1, 256, 56, 56]               0
ResNetBottleNeckBlock-16          [-1, 256, 56, 56]               0
       Conv2dAuto-17           [-1, 64, 56, 56]          16,384
      BatchNorm2d-18           [-1, 64, 56, 56]             128
             ReLU-19           [-1, 64, 56, 56]               0
       Conv2dAuto-20           [-1, 64, 56, 56]          36,864
      BatchNorm2d-21           [-1, 64, 56, 56]             128
             ReLU-22           [-1, 64, 56, 56]               0
       Conv2dAuto-23          [-1, 256, 56, 56]          16,384
      BatchNorm2d-24          [-1, 256, 56, 56]             512
             ReLU-25          [-1, 256, 56, 56]               0
ResNetBottleNeckBlock-26          [-1, 256, 56, 56]               0
       Conv2dAuto-27           [-1, 64, 56, 56]          16,384
      BatchNorm2d-28           [-1, 64, 56, 56]             128
             ReLU-29           [-1, 64, 56, 56]               0
       Conv2dAuto-30           [-1, 64, 56, 56]          36,864
      BatchNorm2d-31           [-1, 64, 56, 56]             128
             ReLU-32           [-1, 64, 56, 56]               0
       Conv2dAuto-33          [-1, 256, 56, 56]          16,384
      BatchNorm2d-34          [-1, 256, 56, 56]             512
             ReLU-35          [-1, 256, 56, 56]               0
ResNetBottleNeckBlock-36          [-1, 256, 56, 56]               0
      ResNetLayer-37          [-1, 256, 56, 56]               0
           Conv2d-38          [-1, 512, 28, 28]         131,072
      BatchNorm2d-39          [-1, 512, 28, 28]           1,024
       Conv2dAuto-40          [-1, 128, 56, 56]          32,768
      BatchNorm2d-41          [-1, 128, 56, 56]             256
             ReLU-42          [-1, 128, 56, 56]               0
       Conv2dAuto-43          [-1, 128, 28, 28]         147,456
      BatchNorm2d-44          [-1, 128, 28, 28]             256
             ReLU-45          [-1, 128, 28, 28]               0
       Conv2dAuto-46          [-1, 512, 28, 28]          65,536
      BatchNorm2d-47          [-1, 512, 28, 28]           1,024
             ReLU-48          [-1, 512, 28, 28]               0
ResNetBottleNeckBlock-49          [-1, 512, 28, 28]               0
       Conv2dAuto-50          [-1, 128, 28, 28]          65,536
      BatchNorm2d-51          [-1, 128, 28, 28]             256
             ReLU-52          [-1, 128, 28, 28]               0
       Conv2dAuto-53          [-1, 128, 28, 28]         147,456
      BatchNorm2d-54          [-1, 128, 28, 28]             256
             ReLU-55          [-1, 128, 28, 28]               0
       Conv2dAuto-56          [-1, 512, 28, 28]          65,536
      BatchNorm2d-57          [-1, 512, 28, 28]           1,024
             ReLU-58          [-1, 512, 28, 28]               0
ResNetBottleNeckBlock-59          [-1, 512, 28, 28]               0
       Conv2dAuto-60          [-1, 128, 28, 28]          65,536
      BatchNorm2d-61          [-1, 128, 28, 28]             256
             ReLU-62          [-1, 128, 28, 28]               0
       Conv2dAuto-63          [-1, 128, 28, 28]         147,456
      BatchNorm2d-64          [-1, 128, 28, 28]             256
             ReLU-65          [-1, 128, 28, 28]               0
       Conv2dAuto-66          [-1, 512, 28, 28]          65,536
      BatchNorm2d-67          [-1, 512, 28, 28]           1,024
             ReLU-68          [-1, 512, 28, 28]               0
ResNetBottleNeckBlock-69          [-1, 512, 28, 28]               0
       Conv2dAuto-70          [-1, 128, 28, 28]          65,536
      BatchNorm2d-71          [-1, 128, 28, 28]             256
             ReLU-72          [-1, 128, 28, 28]               0
       Conv2dAuto-73          [-1, 128, 28, 28]         147,456
      BatchNorm2d-74          [-1, 128, 28, 28]             256
             ReLU-75          [-1, 128, 28, 28]               0
       Conv2dAuto-76          [-1, 512, 28, 28]          65,536
      BatchNorm2d-77          [-1, 512, 28, 28]           1,024
             ReLU-78          [-1, 512, 28, 28]               0
ResNetBottleNeckBlock-79          [-1, 512, 28, 28]               0
       Conv2dAuto-80          [-1, 128, 28, 28]          65,536
      BatchNorm2d-81          [-1, 128, 28, 28]             256
             ReLU-82          [-1, 128, 28, 28]               0
       Conv2dAuto-83          [-1, 128, 28, 28]         147,456
      BatchNorm2d-84          [-1, 128, 28, 28]             256
             ReLU-85          [-1, 128, 28, 28]               0
       Conv2dAuto-86          [-1, 512, 28, 28]          65,536
      BatchNorm2d-87          [-1, 512, 28, 28]           1,024
             ReLU-88          [-1, 512, 28, 28]               0
ResNetBottleNeckBlock-89          [-1, 512, 28, 28]               0
       Conv2dAuto-90          [-1, 128, 28, 28]          65,536
      BatchNorm2d-91          [-1, 128, 28, 28]             256
             ReLU-92          [-1, 128, 28, 28]               0
       Conv2dAuto-93          [-1, 128, 28, 28]         147,456
      BatchNorm2d-94          [-1, 128, 28, 28]             256
             ReLU-95          [-1, 128, 28, 28]               0
       Conv2dAuto-96          [-1, 512, 28, 28]          65,536
      BatchNorm2d-97          [-1, 512, 28, 28]           1,024
             ReLU-98          [-1, 512, 28, 28]               0
ResNetBottleNeckBlock-99          [-1, 512, 28, 28]               0
      Conv2dAuto-100          [-1, 128, 28, 28]          65,536
     BatchNorm2d-101          [-1, 128, 28, 28]             256
            ReLU-102          [-1, 128, 28, 28]               0
      Conv2dAuto-103          [-1, 128, 28, 28]         147,456
     BatchNorm2d-104          [-1, 128, 28, 28]             256
            ReLU-105          [-1, 128, 28, 28]               0
      Conv2dAuto-106          [-1, 512, 28, 28]          65,536
     BatchNorm2d-107          [-1, 512, 28, 28]           1,024
            ReLU-108          [-1, 512, 28, 28]               0
ResNetBottleNeckBlock-109          [-1, 512, 28, 28]               0
      Conv2dAuto-110          [-1, 128, 28, 28]          65,536
     BatchNorm2d-111          [-1, 128, 28, 28]             256
            ReLU-112          [-1, 128, 28, 28]               0
      Conv2dAuto-113          [-1, 128, 28, 28]         147,456
     BatchNorm2d-114          [-1, 128, 28, 28]             256
            ReLU-115          [-1, 128, 28, 28]               0
      Conv2dAuto-116          [-1, 512, 28, 28]          65,536
     BatchNorm2d-117          [-1, 512, 28, 28]           1,024
            ReLU-118          [-1, 512, 28, 28]               0
ResNetBottleNeckBlock-119          [-1, 512, 28, 28]               0
     ResNetLayer-120          [-1, 512, 28, 28]               0
          Conv2d-121         [-1, 1024, 14, 14]         524,288
     BatchNorm2d-122         [-1, 1024, 14, 14]           2,048
      Conv2dAuto-123          [-1, 256, 28, 28]         131,072
     BatchNorm2d-124          [-1, 256, 28, 28]             512
            ReLU-125          [-1, 256, 28, 28]               0
      Conv2dAuto-126          [-1, 256, 14, 14]         589,824
     BatchNorm2d-127          [-1, 256, 14, 14]             512
            ReLU-128          [-1, 256, 14, 14]               0
      Conv2dAuto-129         [-1, 1024, 14, 14]         262,144
     BatchNorm2d-130         [-1, 1024, 14, 14]           2,048
            ReLU-131         [-1, 1024, 14, 14]               0
ResNetBottleNeckBlock-132         [-1, 1024, 14, 14]               0
      Conv2dAuto-133          [-1, 256, 14, 14]         262,144
     BatchNorm2d-134          [-1, 256, 14, 14]             512
            ReLU-135          [-1, 256, 14, 14]               0
      Conv2dAuto-136          [-1, 256, 14, 14]         589,824
     BatchNorm2d-137          [-1, 256, 14, 14]             512
            ReLU-138          [-1, 256, 14, 14]               0
      Conv2dAuto-139         [-1, 1024, 14, 14]         262,144
     BatchNorm2d-140         [-1, 1024, 14, 14]           2,048
            ReLU-141         [-1, 1024, 14, 14]               0
ResNetBottleNeckBlock-142         [-1, 1024, 14, 14]               0
      Conv2dAuto-143          [-1, 256, 14, 14]         262,144
     BatchNorm2d-144          [-1, 256, 14, 14]             512
            ReLU-145          [-1, 256, 14, 14]               0
      Conv2dAuto-146          [-1, 256, 14, 14]         589,824
     BatchNorm2d-147          [-1, 256, 14, 14]             512
            ReLU-148          [-1, 256, 14, 14]               0
      Conv2dAuto-149         [-1, 1024, 14, 14]         262,144
     BatchNorm2d-150         [-1, 1024, 14, 14]           2,048
            ReLU-151         [-1, 1024, 14, 14]               0
ResNetBottleNeckBlock-152         [-1, 1024, 14, 14]               0
      Conv2dAuto-153          [-1, 256, 14, 14]         262,144
     BatchNorm2d-154          [-1, 256, 14, 14]             512
            ReLU-155          [-1, 256, 14, 14]               0
      Conv2dAuto-156          [-1, 256, 14, 14]         589,824
     BatchNorm2d-157          [-1, 256, 14, 14]             512
            ReLU-158          [-1, 256, 14, 14]               0
      Conv2dAuto-159         [-1, 1024, 14, 14]         262,144
     BatchNorm2d-160         [-1, 1024, 14, 14]           2,048
            ReLU-161         [-1, 1024, 14, 14]               0
ResNetBottleNeckBlock-162         [-1, 1024, 14, 14]               0
      Conv2dAuto-163          [-1, 256, 14, 14]         262,144
     BatchNorm2d-164          [-1, 256, 14, 14]             512
            ReLU-165          [-1, 256, 14, 14]               0
      Conv2dAuto-166          [-1, 256, 14, 14]         589,824
     BatchNorm2d-167          [-1, 256, 14, 14]             512
            ReLU-168          [-1, 256, 14, 14]               0
      Conv2dAuto-169         [-1, 1024, 14, 14]         262,144
     BatchNorm2d-170         [-1, 1024, 14, 14]           2,048
            ReLU-171         [-1, 1024, 14, 14]               0
ResNetBottleNeckBlock-172         [-1, 1024, 14, 14]               0
      Conv2dAuto-173          [-1, 256, 14, 14]         262,144
     BatchNorm2d-174          [-1, 256, 14, 14]             512
            ReLU-175          [-1, 256, 14, 14]               0
      Conv2dAuto-176          [-1, 256, 14, 14]         589,824
     BatchNorm2d-177          [-1, 256, 14, 14]             512
            ReLU-178          [-1, 256, 14, 14]               0
      Conv2dAuto-179         [-1, 1024, 14, 14]         262,144
     BatchNorm2d-180         [-1, 1024, 14, 14]           2,048
            ReLU-181         [-1, 1024, 14, 14]               0
ResNetBottleNeckBlock-182         [-1, 1024, 14, 14]               0
      Conv2dAuto-183          [-1, 256, 14, 14]         262,144
     BatchNorm2d-184          [-1, 256, 14, 14]             512
            ReLU-185          [-1, 256, 14, 14]               0
      Conv2dAuto-186          [-1, 256, 14, 14]         589,824
     BatchNorm2d-187          [-1, 256, 14, 14]             512
            ReLU-188          [-1, 256, 14, 14]               0
      Conv2dAuto-189         [-1, 1024, 14, 14]         262,144
     BatchNorm2d-190         [-1, 1024, 14, 14]           2,048
            ReLU-191         [-1, 1024, 14, 14]               0
ResNetBottleNeckBlock-192         [-1, 1024, 14, 14]               0
      Conv2dAuto-193          [-1, 256, 14, 14]         262,144
     BatchNorm2d-194          [-1, 256, 14, 14]             512
            ReLU-195          [-1, 256, 14, 14]               0
      Conv2dAuto-196          [-1, 256, 14, 14]         589,824
     BatchNorm2d-197          [-1, 256, 14, 14]             512
            ReLU-198          [-1, 256, 14, 14]               0
      Conv2dAuto-199         [-1, 1024, 14, 14]         262,144
     BatchNorm2d-200         [-1, 1024, 14, 14]           2,048
            ReLU-201         [-1, 1024, 14, 14]               0
ResNetBottleNeckBlock-202         [-1, 1024, 14, 14]               0
      Conv2dAuto-203          [-1, 256, 14, 14]         262,144
     BatchNorm2d-204          [-1, 256, 14, 14]             512
            ReLU-205          [-1, 256, 14, 14]               0
      Conv2dAuto-206          [-1, 256, 14, 14]         589,824
     BatchNorm2d-207          [-1, 256, 14, 14]             512
            ReLU-208          [-1, 256, 14, 14]               0
      Conv2dAuto-209         [-1, 1024, 14, 14]         262,144
     BatchNorm2d-210         [-1, 1024, 14, 14]           2,048
            ReLU-211         [-1, 1024, 14, 14]               0
ResNetBottleNeckBlock-212         [-1, 1024, 14, 14]               0
      Conv2dAuto-213          [-1, 256, 14, 14]         262,144
     BatchNorm2d-214          [-1, 256, 14, 14]             512
            ReLU-215          [-1, 256, 14, 14]               0
      Conv2dAuto-216          [-1, 256, 14, 14]         589,824
     BatchNorm2d-217          [-1, 256, 14, 14]             512
            ReLU-218          [-1, 256, 14, 14]               0
      Conv2dAuto-219         [-1, 1024, 14, 14]         262,144
     BatchNorm2d-220         [-1, 1024, 14, 14]           2,048
            ReLU-221         [-1, 1024, 14, 14]               0
ResNetBottleNeckBlock-222         [-1, 1024, 14, 14]               0
      Conv2dAuto-223          [-1, 256, 14, 14]         262,144
     BatchNorm2d-224          [-1, 256, 14, 14]             512
            ReLU-225          [-1, 256, 14, 14]               0
      Conv2dAuto-226          [-1, 256, 14, 14]         589,824
     BatchNorm2d-227          [-1, 256, 14, 14]             512
            ReLU-228          [-1, 256, 14, 14]               0
      Conv2dAuto-229         [-1, 1024, 14, 14]         262,144
     BatchNorm2d-230         [-1, 1024, 14, 14]           2,048
            ReLU-231         [-1, 1024, 14, 14]               0
ResNetBottleNeckBlock-232         [-1, 1024, 14, 14]               0
      Conv2dAuto-233          [-1, 256, 14, 14]         262,144
     BatchNorm2d-234          [-1, 256, 14, 14]             512
            ReLU-235          [-1, 256, 14, 14]               0
      Conv2dAuto-236          [-1, 256, 14, 14]         589,824
     BatchNorm2d-237          [-1, 256, 14, 14]             512
            ReLU-238          [-1, 256, 14, 14]               0
      Conv2dAuto-239         [-1, 1024, 14, 14]         262,144
     BatchNorm2d-240         [-1, 1024, 14, 14]           2,048
            ReLU-241         [-1, 1024, 14, 14]               0
ResNetBottleNeckBlock-242         [-1, 1024, 14, 14]               0
      Conv2dAuto-243          [-1, 256, 14, 14]         262,144
     BatchNorm2d-244          [-1, 256, 14, 14]             512
            ReLU-245          [-1, 256, 14, 14]               0
      Conv2dAuto-246          [-1, 256, 14, 14]         589,824
     BatchNorm2d-247          [-1, 256, 14, 14]             512
            ReLU-248          [-1, 256, 14, 14]               0
      Conv2dAuto-249         [-1, 1024, 14, 14]         262,144
     BatchNorm2d-250         [-1, 1024, 14, 14]           2,048
            ReLU-251         [-1, 1024, 14, 14]               0
ResNetBottleNeckBlock-252         [-1, 1024, 14, 14]               0
      Conv2dAuto-253          [-1, 256, 14, 14]         262,144
     BatchNorm2d-254          [-1, 256, 14, 14]             512
            ReLU-255          [-1, 256, 14, 14]               0
      Conv2dAuto-256          [-1, 256, 14, 14]         589,824
     BatchNorm2d-257          [-1, 256, 14, 14]             512
            ReLU-258          [-1, 256, 14, 14]               0
      Conv2dAuto-259         [-1, 1024, 14, 14]         262,144
     BatchNorm2d-260         [-1, 1024, 14, 14]           2,048
            ReLU-261         [-1, 1024, 14, 14]               0
ResNetBottleNeckBlock-262         [-1, 1024, 14, 14]               0
      Conv2dAuto-263          [-1, 256, 14, 14]         262,144
     BatchNorm2d-264          [-1, 256, 14, 14]             512
            ReLU-265          [-1, 256, 14, 14]               0
      Conv2dAuto-266          [-1, 256, 14, 14]         589,824
     BatchNorm2d-267          [-1, 256, 14, 14]             512
            ReLU-268          [-1, 256, 14, 14]               0
      Conv2dAuto-269         [-1, 1024, 14, 14]         262,144
     BatchNorm2d-270         [-1, 1024, 14, 14]           2,048
            ReLU-271         [-1, 1024, 14, 14]               0
ResNetBottleNeckBlock-272         [-1, 1024, 14, 14]               0
      Conv2dAuto-273          [-1, 256, 14, 14]         262,144
     BatchNorm2d-274          [-1, 256, 14, 14]             512
            ReLU-275          [-1, 256, 14, 14]               0
      Conv2dAuto-276          [-1, 256, 14, 14]         589,824
     BatchNorm2d-277          [-1, 256, 14, 14]             512
            ReLU-278          [-1, 256, 14, 14]               0
      Conv2dAuto-279         [-1, 1024, 14, 14]         262,144
     BatchNorm2d-280         [-1, 1024, 14, 14]           2,048
            ReLU-281         [-1, 1024, 14, 14]               0
ResNetBottleNeckBlock-282         [-1, 1024, 14, 14]               0
      Conv2dAuto-283          [-1, 256, 14, 14]         262,144
     BatchNorm2d-284          [-1, 256, 14, 14]             512
            ReLU-285          [-1, 256, 14, 14]               0
      Conv2dAuto-286          [-1, 256, 14, 14]         589,824
     BatchNorm2d-287          [-1, 256, 14, 14]             512
            ReLU-288          [-1, 256, 14, 14]               0
      Conv2dAuto-289         [-1, 1024, 14, 14]         262,144
     BatchNorm2d-290         [-1, 1024, 14, 14]           2,048
            ReLU-291         [-1, 1024, 14, 14]               0
ResNetBottleNeckBlock-292         [-1, 1024, 14, 14]               0
      Conv2dAuto-293          [-1, 256, 14, 14]         262,144
     BatchNorm2d-294          [-1, 256, 14, 14]             512
            ReLU-295          [-1, 256, 14, 14]               0
      Conv2dAuto-296          [-1, 256, 14, 14]         589,824
     BatchNorm2d-297          [-1, 256, 14, 14]             512
            ReLU-298          [-1, 256, 14, 14]               0
      Conv2dAuto-299         [-1, 1024, 14, 14]         262,144
     BatchNorm2d-300         [-1, 1024, 14, 14]           2,048
            ReLU-301         [-1, 1024, 14, 14]               0
ResNetBottleNeckBlock-302         [-1, 1024, 14, 14]               0
      Conv2dAuto-303          [-1, 256, 14, 14]         262,144
     BatchNorm2d-304          [-1, 256, 14, 14]             512
            ReLU-305          [-1, 256, 14, 14]               0
      Conv2dAuto-306          [-1, 256, 14, 14]         589,824
     BatchNorm2d-307          [-1, 256, 14, 14]             512
            ReLU-308          [-1, 256, 14, 14]               0
      Conv2dAuto-309         [-1, 1024, 14, 14]         262,144
     BatchNorm2d-310         [-1, 1024, 14, 14]           2,048
            ReLU-311         [-1, 1024, 14, 14]               0
ResNetBottleNeckBlock-312         [-1, 1024, 14, 14]               0
      Conv2dAuto-313          [-1, 256, 14, 14]         262,144
     BatchNorm2d-314          [-1, 256, 14, 14]             512
            ReLU-315          [-1, 256, 14, 14]               0
      Conv2dAuto-316          [-1, 256, 14, 14]         589,824
     BatchNorm2d-317          [-1, 256, 14, 14]             512
            ReLU-318          [-1, 256, 14, 14]               0
      Conv2dAuto-319         [-1, 1024, 14, 14]         262,144
     BatchNorm2d-320         [-1, 1024, 14, 14]           2,048
            ReLU-321         [-1, 1024, 14, 14]               0
ResNetBottleNeckBlock-322         [-1, 1024, 14, 14]               0
      Conv2dAuto-323          [-1, 256, 14, 14]         262,144
     BatchNorm2d-324          [-1, 256, 14, 14]             512
            ReLU-325          [-1, 256, 14, 14]               0
      Conv2dAuto-326          [-1, 256, 14, 14]         589,824
     BatchNorm2d-327          [-1, 256, 14, 14]             512
            ReLU-328          [-1, 256, 14, 14]               0
      Conv2dAuto-329         [-1, 1024, 14, 14]         262,144
     BatchNorm2d-330         [-1, 1024, 14, 14]           2,048
            ReLU-331         [-1, 1024, 14, 14]               0
ResNetBottleNeckBlock-332         [-1, 1024, 14, 14]               0
      Conv2dAuto-333          [-1, 256, 14, 14]         262,144
     BatchNorm2d-334          [-1, 256, 14, 14]             512
            ReLU-335          [-1, 256, 14, 14]               0
      Conv2dAuto-336          [-1, 256, 14, 14]         589,824
     BatchNorm2d-337          [-1, 256, 14, 14]             512
            ReLU-338          [-1, 256, 14, 14]               0
      Conv2dAuto-339         [-1, 1024, 14, 14]         262,144
     BatchNorm2d-340         [-1, 1024, 14, 14]           2,048
            ReLU-341         [-1, 1024, 14, 14]               0
ResNetBottleNeckBlock-342         [-1, 1024, 14, 14]               0
      Conv2dAuto-343          [-1, 256, 14, 14]         262,144
     BatchNorm2d-344          [-1, 256, 14, 14]             512
            ReLU-345          [-1, 256, 14, 14]               0
      Conv2dAuto-346          [-1, 256, 14, 14]         589,824
     BatchNorm2d-347          [-1, 256, 14, 14]             512
            ReLU-348          [-1, 256, 14, 14]               0
      Conv2dAuto-349         [-1, 1024, 14, 14]         262,144
     BatchNorm2d-350         [-1, 1024, 14, 14]           2,048
            ReLU-351         [-1, 1024, 14, 14]               0
ResNetBottleNeckBlock-352         [-1, 1024, 14, 14]               0
      Conv2dAuto-353          [-1, 256, 14, 14]         262,144
     BatchNorm2d-354          [-1, 256, 14, 14]             512
            ReLU-355          [-1, 256, 14, 14]               0
      Conv2dAuto-356          [-1, 256, 14, 14]         589,824
     BatchNorm2d-357          [-1, 256, 14, 14]             512
            ReLU-358          [-1, 256, 14, 14]               0
      Conv2dAuto-359         [-1, 1024, 14, 14]         262,144
     BatchNorm2d-360         [-1, 1024, 14, 14]           2,048
            ReLU-361         [-1, 1024, 14, 14]               0
ResNetBottleNeckBlock-362         [-1, 1024, 14, 14]               0
      Conv2dAuto-363          [-1, 256, 14, 14]         262,144
     BatchNorm2d-364          [-1, 256, 14, 14]             512
            ReLU-365          [-1, 256, 14, 14]               0
      Conv2dAuto-366          [-1, 256, 14, 14]         589,824
     BatchNorm2d-367          [-1, 256, 14, 14]             512
            ReLU-368          [-1, 256, 14, 14]               0
      Conv2dAuto-369         [-1, 1024, 14, 14]         262,144
     BatchNorm2d-370         [-1, 1024, 14, 14]           2,048
            ReLU-371         [-1, 1024, 14, 14]               0
ResNetBottleNeckBlock-372         [-1, 1024, 14, 14]               0
      Conv2dAuto-373          [-1, 256, 14, 14]         262,144
     BatchNorm2d-374          [-1, 256, 14, 14]             512
            ReLU-375          [-1, 256, 14, 14]               0
      Conv2dAuto-376          [-1, 256, 14, 14]         589,824
     BatchNorm2d-377          [-1, 256, 14, 14]             512
            ReLU-378          [-1, 256, 14, 14]               0
      Conv2dAuto-379         [-1, 1024, 14, 14]         262,144
     BatchNorm2d-380         [-1, 1024, 14, 14]           2,048
            ReLU-381         [-1, 1024, 14, 14]               0
ResNetBottleNeckBlock-382         [-1, 1024, 14, 14]               0
      Conv2dAuto-383          [-1, 256, 14, 14]         262,144
     BatchNorm2d-384          [-1, 256, 14, 14]             512
            ReLU-385          [-1, 256, 14, 14]               0
      Conv2dAuto-386          [-1, 256, 14, 14]         589,824
     BatchNorm2d-387          [-1, 256, 14, 14]             512
            ReLU-388          [-1, 256, 14, 14]               0
      Conv2dAuto-389         [-1, 1024, 14, 14]         262,144
     BatchNorm2d-390         [-1, 1024, 14, 14]           2,048
            ReLU-391         [-1, 1024, 14, 14]               0
ResNetBottleNeckBlock-392         [-1, 1024, 14, 14]               0
      Conv2dAuto-393          [-1, 256, 14, 14]         262,144
     BatchNorm2d-394          [-1, 256, 14, 14]             512
            ReLU-395          [-1, 256, 14, 14]               0
      Conv2dAuto-396          [-1, 256, 14, 14]         589,824
     BatchNorm2d-397          [-1, 256, 14, 14]             512
            ReLU-398          [-1, 256, 14, 14]               0
      Conv2dAuto-399         [-1, 1024, 14, 14]         262,144
     BatchNorm2d-400         [-1, 1024, 14, 14]           2,048
            ReLU-401         [-1, 1024, 14, 14]               0
ResNetBottleNeckBlock-402         [-1, 1024, 14, 14]               0
      Conv2dAuto-403          [-1, 256, 14, 14]         262,144
     BatchNorm2d-404          [-1, 256, 14, 14]             512
            ReLU-405          [-1, 256, 14, 14]               0
      Conv2dAuto-406          [-1, 256, 14, 14]         589,824
     BatchNorm2d-407          [-1, 256, 14, 14]             512
            ReLU-408          [-1, 256, 14, 14]               0
      Conv2dAuto-409         [-1, 1024, 14, 14]         262,144
     BatchNorm2d-410         [-1, 1024, 14, 14]           2,048
            ReLU-411         [-1, 1024, 14, 14]               0
ResNetBottleNeckBlock-412         [-1, 1024, 14, 14]               0
      Conv2dAuto-413          [-1, 256, 14, 14]         262,144
     BatchNorm2d-414          [-1, 256, 14, 14]             512
            ReLU-415          [-1, 256, 14, 14]               0
      Conv2dAuto-416          [-1, 256, 14, 14]         589,824
     BatchNorm2d-417          [-1, 256, 14, 14]             512
            ReLU-418          [-1, 256, 14, 14]               0
      Conv2dAuto-419         [-1, 1024, 14, 14]         262,144
     BatchNorm2d-420         [-1, 1024, 14, 14]           2,048
            ReLU-421         [-1, 1024, 14, 14]               0
ResNetBottleNeckBlock-422         [-1, 1024, 14, 14]               0
      Conv2dAuto-423          [-1, 256, 14, 14]         262,144
     BatchNorm2d-424          [-1, 256, 14, 14]             512
            ReLU-425          [-1, 256, 14, 14]               0
      Conv2dAuto-426          [-1, 256, 14, 14]         589,824
     BatchNorm2d-427          [-1, 256, 14, 14]             512
            ReLU-428          [-1, 256, 14, 14]               0
      Conv2dAuto-429         [-1, 1024, 14, 14]         262,144
     BatchNorm2d-430         [-1, 1024, 14, 14]           2,048
            ReLU-431         [-1, 1024, 14, 14]               0
ResNetBottleNeckBlock-432         [-1, 1024, 14, 14]               0
      Conv2dAuto-433          [-1, 256, 14, 14]         262,144
     BatchNorm2d-434          [-1, 256, 14, 14]             512
            ReLU-435          [-1, 256, 14, 14]               0
      Conv2dAuto-436          [-1, 256, 14, 14]         589,824
     BatchNorm2d-437          [-1, 256, 14, 14]             512
            ReLU-438          [-1, 256, 14, 14]               0
      Conv2dAuto-439         [-1, 1024, 14, 14]         262,144
     BatchNorm2d-440         [-1, 1024, 14, 14]           2,048
            ReLU-441         [-1, 1024, 14, 14]               0
ResNetBottleNeckBlock-442         [-1, 1024, 14, 14]               0
      Conv2dAuto-443          [-1, 256, 14, 14]         262,144
     BatchNorm2d-444          [-1, 256, 14, 14]             512
            ReLU-445          [-1, 256, 14, 14]               0
      Conv2dAuto-446          [-1, 256, 14, 14]         589,824
     BatchNorm2d-447          [-1, 256, 14, 14]             512
            ReLU-448          [-1, 256, 14, 14]               0
      Conv2dAuto-449         [-1, 1024, 14, 14]         262,144
     BatchNorm2d-450         [-1, 1024, 14, 14]           2,048
            ReLU-451         [-1, 1024, 14, 14]               0
ResNetBottleNeckBlock-452         [-1, 1024, 14, 14]               0
      Conv2dAuto-453          [-1, 256, 14, 14]         262,144
     BatchNorm2d-454          [-1, 256, 14, 14]             512
            ReLU-455          [-1, 256, 14, 14]               0
      Conv2dAuto-456          [-1, 256, 14, 14]         589,824
     BatchNorm2d-457          [-1, 256, 14, 14]             512
            ReLU-458          [-1, 256, 14, 14]               0
      Conv2dAuto-459         [-1, 1024, 14, 14]         262,144
     BatchNorm2d-460         [-1, 1024, 14, 14]           2,048
            ReLU-461         [-1, 1024, 14, 14]               0
ResNetBottleNeckBlock-462         [-1, 1024, 14, 14]               0
      Conv2dAuto-463          [-1, 256, 14, 14]         262,144
     BatchNorm2d-464          [-1, 256, 14, 14]             512
            ReLU-465          [-1, 256, 14, 14]               0
      Conv2dAuto-466          [-1, 256, 14, 14]         589,824
     BatchNorm2d-467          [-1, 256, 14, 14]             512
            ReLU-468          [-1, 256, 14, 14]               0
      Conv2dAuto-469         [-1, 1024, 14, 14]         262,144
     BatchNorm2d-470         [-1, 1024, 14, 14]           2,048
            ReLU-471         [-1, 1024, 14, 14]               0
ResNetBottleNeckBlock-472         [-1, 1024, 14, 14]               0
      Conv2dAuto-473          [-1, 256, 14, 14]         262,144
     BatchNorm2d-474          [-1, 256, 14, 14]             512
            ReLU-475          [-1, 256, 14, 14]               0
      Conv2dAuto-476          [-1, 256, 14, 14]         589,824
     BatchNorm2d-477          [-1, 256, 14, 14]             512
            ReLU-478          [-1, 256, 14, 14]               0
      Conv2dAuto-479         [-1, 1024, 14, 14]         262,144
     BatchNorm2d-480         [-1, 1024, 14, 14]           2,048
            ReLU-481         [-1, 1024, 14, 14]               0
ResNetBottleNeckBlock-482         [-1, 1024, 14, 14]               0
     ResNetLayer-483         [-1, 1024, 14, 14]               0
          Conv2d-484           [-1, 2048, 7, 7]       2,097,152
     BatchNorm2d-485           [-1, 2048, 7, 7]           4,096
      Conv2dAuto-486          [-1, 512, 14, 14]         524,288
     BatchNorm2d-487          [-1, 512, 14, 14]           1,024
            ReLU-488          [-1, 512, 14, 14]               0
      Conv2dAuto-489            [-1, 512, 7, 7]       2,359,296
     BatchNorm2d-490            [-1, 512, 7, 7]           1,024
            ReLU-491            [-1, 512, 7, 7]               0
      Conv2dAuto-492           [-1, 2048, 7, 7]       1,048,576
     BatchNorm2d-493           [-1, 2048, 7, 7]           4,096
            ReLU-494           [-1, 2048, 7, 7]               0
ResNetBottleNeckBlock-495           [-1, 2048, 7, 7]               0
      Conv2dAuto-496            [-1, 512, 7, 7]       1,048,576
     BatchNorm2d-497            [-1, 512, 7, 7]           1,024
            ReLU-498            [-1, 512, 7, 7]               0
      Conv2dAuto-499            [-1, 512, 7, 7]       2,359,296
     BatchNorm2d-500            [-1, 512, 7, 7]           1,024
            ReLU-501            [-1, 512, 7, 7]               0
      Conv2dAuto-502           [-1, 2048, 7, 7]       1,048,576
     BatchNorm2d-503           [-1, 2048, 7, 7]           4,096
            ReLU-504           [-1, 2048, 7, 7]               0
ResNetBottleNeckBlock-505           [-1, 2048, 7, 7]               0
      Conv2dAuto-506            [-1, 512, 7, 7]       1,048,576
     BatchNorm2d-507            [-1, 512, 7, 7]           1,024
            ReLU-508            [-1, 512, 7, 7]               0
      Conv2dAuto-509            [-1, 512, 7, 7]       2,359,296
     BatchNorm2d-510            [-1, 512, 7, 7]           1,024
            ReLU-511            [-1, 512, 7, 7]               0
      Conv2dAuto-512           [-1, 2048, 7, 7]       1,048,576
     BatchNorm2d-513           [-1, 2048, 7, 7]           4,096
            ReLU-514           [-1, 2048, 7, 7]               0
ResNetBottleNeckBlock-515           [-1, 2048, 7, 7]               0
     ResNetLayer-516           [-1, 2048, 7, 7]               0
   ResNetEncoder-517           [-1, 2048, 7, 7]               0
AdaptiveAvgPool2d-518           [-1, 2048, 1, 1]               0
          Linear-519                 [-1, 1000]       2,049,000
   ResnetDecoder-520                 [-1, 1000]               0
================================================================
Total params: 60,192,808
Trainable params: 60,192,808
Non-trainable params: 0
----------------------------------------------------------------
Input size (MB): 0.57
Forward/backward pass size (MB): 618.85
Params size (MB): 229.62
Estimated Total Size (MB): 849.04
----------------------------------------------------------------